…
2023-01-06 15:45:26,565 - INFO - time_mean: 2249.877973358706
2023-01-06 15:45:26,565 - INFO - time_std: 1145.3334062262293
2023-01-06 15:45:26,566 - INFO - dist_gap_mean: 0.26653348779410035
2023-01-06 15:45:26,566 - INFO - dist_gap_std: 0.15520426931043313
2023-01-06 15:45:26,566 - INFO - time_gap_mean: 47.24283002847011
2023-01-06 15:45:26,566 - INFO - time_gap_std: 44.31597855637794
2023-01-06 15:45:26,580 - INFO - Number of train data: 4204
2023-01-06 15:45:26,580 - INFO - Number of eval  data: 587
2023-01-06 15:45:26,580 - INFO - Number of test  data: 1171
2023-01-06 15:45:29,400 - INFO - DeepTTE(
  (attr_net): Attr(
    (uid_em): Embedding(69, 16)
    (weekid_em): Embedding(7, 3)
    (timeid_em): Embedding(1440, 8)
  )
  (spatio_temporal): SpatioTemporal(
    (geo_conv): GeoConv(
      (state_em): Embedding(2, 2)
      (process_coords): Linear(in_features=4, out_features=16, bias=True)
      (conv): Conv1d(16, 32, kernel_size=(3,), stride=(1,))
    )
    (rnn): LSTM(61, 128, batch_first=True)
    (attr2atten): Linear(in_features=28, out_features=128, bias=True)
  )
  (entire_estimate): EntireEstimator(
    (input2hid): Linear(in_features=156, out_features=128, bias=True)
    (residuals): ModuleList(
      (0): Linear(in_features=128, out_features=128, bias=True)
      (1): Linear(in_features=128, out_features=128, bias=True)
      (2): Linear(in_features=128, out_features=128, bias=True)
      (3): Linear(in_features=128, out_features=128, bias=True)
    )
    (hid2out): Linear(in_features=128, out_features=1, bias=True)
  )
  (local_estimate): LocalEstimator(
    (input2hid): Linear(in_features=128, out_features=64, bias=True)
    (hid2hid): Linear(in_features=64, out_features=32, bias=True)
    (hid2out): Linear(in_features=32, out_features=1, bias=True)
  )
)
2023-01-06 15:45:29,401 - INFO - attr_net.uid_em.weight	torch.Size([69, 16])	cuda:0	True
2023-01-06 15:45:29,401 - INFO - attr_net.weekid_em.weight	torch.Size([7, 3])	cuda:0	True
2023-01-06 15:45:29,401 - INFO - attr_net.timeid_em.weight	torch.Size([1440, 8])	cuda:0	True
2023-01-06 15:45:29,401 - INFO - spatio_temporal.geo_conv.state_em.weight	torch.Size([2, 2])	cuda:0	True
…
